checkpoint_striker_actor.pth (torch_old, 479262 bytes, 6 tensors)

fc1.weight f4 [256, 336]
0	0xbd3eb081	-0.046555046
1	0x3d9ce1dc	0.07660267
2	0x3d81b2b9	0.06332917
3	0x3d030e4f	0.031996068
4	0x3bf91130	0.007600926
5	0xbc82b925	-0.015957424
6	0x3d4e6b9d	0.050395597
7	0xbdf3df74	-0.11907855
8	0xbd745132	-0.059647746
9	0x3d4011cb	0.04689197
10	0x3d0d8742	0.03455282
11	0x3a7cb04f	0.0009639309
12	0x3c89b2be	0.016808864
13	0xba98ed32	-0.0011667369
14	0x3ceb9c39	0.028761016
15	0xbd71f59d	-0.059072126
16	0x3c94b525	0.018152783
17	0x3d47074f	0.048590954
18	0x3dc08a91	0.094014294
19	0x3d44c57f	0.04803991
20	0x3de07142	0.10959102
21	0xbdf582b8	-0.11987823
22	0xbdcdf87c	-0.1005716
23	0xbcc206c7	-0.023684872
24	0x3c1e085d	0.009645549
25	0x3ce5079d	0.027957732
26	0x3b28280a	0.002565863
27	0xbc8888d3	-0.016666805
28	0xbdb26f1c	-0.08712599
29	0x3b15fd15	0.0022886444
30	0xbdad4496	-0.08460347
31	0xbe0f0b04	-0.13969046
32	0xbd5b50b9	-0.05354378
33	0xbcf4fd7a	-0.029906023
34	0xbb3bfb9a	-0.0028683902
35	0xbd5032c1	-0.050829653
36	0x3d240a83	0.040049087
37	0xbd557352	-0.05211193
38	0xbbac8157	-0.005264442
39	0xbd9f6d65	-0.07784537
40	0x3cb4e95a	0.022083927
41	0xbc9063cd	-0.017625714
42	0x3cba76b1	0.022761675
43	0x3dd2bbbd	0.102897145
44	0xbd66df5c	-0.056365356
45	0x3cccbf01	0.024993422
46	0x3d976937	0.07393115
47	0xbc96cb48	-0.018407479
48	0x3ca2b473	0.019861436
49	0xbc8b26df	-0.016986309
50	0x3ac0768c	0.0014683767
51	0x3df9c48a	0.1219569
52	0x3d9b1b57	0.07573574
53	0xbe0da5e3	-0.13832812
54	0xbc162f19	-0.009166502
55	0xbdf1b6ec	-0.11802468
56	0xbbbbe17b	-0.0057336665
57	0x3d0ad524	0.033894673
58	0xbd6c3ac7	-0.057673242
59	0xbd383aaa	-0.04497782
60	0x3c8983ef	0.016786544
61	0xbd37e067	-0.04489174
62	0x3c884297	0.016633315
63	0x3c18caa3	0.009325656
64	0x3adff159	0.0017085477
65	0xbcde5b66	-0.027143192
66	0x3d82eec6	0.06393199
67	0x3a0792c6	0.0005171712
68	0xbd120d60	-0.035657287
69	0x3d837c74	0.06420222
70	0x3d06f02e	0.032943897
71	0xbd9b870b	-0.07594117
72	0x3d8d55d9	0.0690114
73	0xbd876ad8	-0.06612176
74	0x3d0be377	0.034152474
75	0xbc792422	-0.015206369
76	0xbdb1f2a3	-0.086888574
77	0xbd86d8b5	-0.06584302
78	0x3d06d4b7	0.032917704
79	0xbcf713e2	-0.030160848
80	0x3d738e84	0.059462085
81	0xbd1a2993	-0.037637305
82	0x3dd2d598	0.10294646
83	0x3c0faa6e	0.008768661
84	0xbd099a58	-0.03359446
85	0x3aff327c	0.0019470002
86	0x3c551c85	0.013007288
87	0xbda032f0	-0.078222156
88	0x3cb60225	0.02221782
89	0x3d411c30	0.047146022
90	0xbc1b5947	-0.009481735
91	0xbceadbb6	-0.02866922
92	0x3d79e235	0.061006743
93	0xbcf1f88a	-0.029537458
94	0xbc45d859	-0.012075507
95	0xbd6e42c5	-0.058169145
96	0x3d6bc550	0.05756122
97	0x3aca587d	0.0015437749
98	0xbd31dda9	-0.043424282
99	0xbcf0448d	-0.029329563
100	0xbd97a8d8	-0.07405251
101	0xbd451ec1	-0.048125032
102	0xbc231a68	-0.009955026
103	0xbe047e21	-0.1293874
104	0x3c4e3f4b	0.012588332
105	0x3d38f7b0	0.04515809
106	0x3cd556bf	0.02604234
107	0xbc2bc6f6	-0.010484448
108	0x3cac50e3	0.021034664
109	0xbdc86efb	-0.09786793
110	0x3b68f438	0.0035545956
111	0xbce100d4	-0.027466215
112	0x3cda0814	0.02661518
113	0x3dcbe777	0.09956258
114	0x3d16bd1a	0.036801435
115	0x3d0c3367	0.03422871
116	0x3d673e8b	0.05645613
117	0xbcc770f0	-0.024345845
118	0xbdac833c	-0.084234685
119	0xbc10a61b	-0.008828665
120	0x3d1fab8b	0.038981955
121	0x3d8659e7	0.06560116
122	0xbe2dd1ad	-0.16974516
123	0x3c9c4a07	0.019078268
124	0x3d4428af	0.04789036
125	0xbd7d5524	-0.061848775
126	0x3dbd5ff4	0.09246817
127	0xbd039921	-0.032128457
128	0xbd716d68	-0.05894223
129	0x3ccb4bdc	0.024816446
130	0x3b43b0a9	0.0029859936
131	0x3cd2f305	0.025750646
132	0xbd813c2a	-0.063103035
133	0xbd002bd9	-0.031291816
134	0xbde45f8f	-0.11151039
135	0xbbcc4a8a	-0.0062344717
136	0x3d2ba69f	0.04190695
137	0xbe187ea8	-0.14892066
138	0x3bb1844d	0.005417383
139	0xbd593b73	-0.05303521
140	0xbc0f37ce	-0.008741332
141	0x3ce58a24	0.028019972
142	0x3d9aafc8	0.07553059
143	0xbd2436ec	-0.04009144
144	0x3c117524	0.008878026
145	0xbdd6d93b	-0.10490652
146	0x3d0d46a8	0.03449121
147	0xbddff62a	-0.10935624
148	0x3de26279	0.110539384
149	0x3dd3be56	0.10339038
150	0x3d0e0336	0.03467103
151	0x3e0884d7	0.13331924
152	0xbdeff556	-0.11716716
153	0xbde20718	-0.11036509
154	0xbdbddffd	-0.09271238
155	0xbd0e37b6	-0.0347211
156	0x3da38aef	0.07985484
157	0x3c07b95b	0.008283938
158	0xbd8aa6b6	-0.06770079
159	0xbcf8a61c	-0.030352645
160	0xbcbf5208	-0.023354545
161	0xbd80adc8	-0.06283146
162	0x3c42039c	0.011841681
163	0xbcb7f14c	-0.022453927
164	0x3d586063	0.052826297
165	0xbdaf2fc7	-0.08554035
166	0x3c932aa6	0.017964672
167	0x3db6a999	0.08919067
168	0xbcb3aa1a	-0.021931697
169	0x3d3c90c8	0.04603651
170	0x3c6c4bb0	0.014422342
171	0x3d41cce5	0.047314543
172	0xbc0d51af	-0.008625432
173	0x3cc1c647	0.023654116
174	0x3d2a0943	0.04151274
175	0xbd9a3fe0	-0.075317144
176	0x3c51390c	0.012769949
177	0xbc9a5f8d	-0.01884439
178	0x3d34981b	0.04409037
179	0xbd5bf4b7	-0.053700175
180	0x3d02e982	0.03196097
181	0xbda1d8ca	-0.07902677
182	0xbd260e8e	-0.040541224
183	0xbc48eed2	-0.01226397
184	0xbd1bb975	-0.038018662
185	0x3d1887d7	0.037238922
186	0xbd39ef7f	-0.045394417
187	0xbd1f9439	-0.038959716
188	0x3c9e5c83	0.019331222
189	0x3d6fb14b	0.05851869
190	0xbdb1f6fa	-0.08689685
191	0xbd8f8484	-0.07007697
192	0xbe0ac72b	-0.13552539
193	0xbc82547b	-0.015909424
194	0xbc1b2f78	-0.009471767
195	0xbaf34b7d	-0.0018561926
196	0x3d96ee8d	0.07369719
197	0xbbce5b3f	-0.0062974985
198	0xbc645667	-0.013936616
199	0x3c905d60	0.01762265
200	0xbdbac03f	-0.09118699
201	0x3d555744	0.052085176
202	0xbdb89adc	-0.09013912
203	0xbdfa13b0	-0.12210786
204	0xbbbfb12e	-0.005849979
205	0xbdb2c15c	-0.087282866
206	0xbca7451a	-0.020418692
207	0xbc614fc6	-0.01375193
208	0xbcba5ded	-0.022749865
209	0xbbfa89a3	-0.007645802
210	0x3b4c198d	0.003114316
211	0x3c6666f4	0.014062632
212	0x3d8aa0d4	0.06768957
213	0x3c8912ee	0.01673266
214	0xbd6f8520	-0.058476567
215	0xbcd2a92b	-0.025715431
216	0xbd3b5f4d	-0.045745183
217	0xbbd0f376	-0.006376679
218	0xbce25ce2	-0.02763218
219	0xbc722e4e	-0.014781548
220	0x3bc57e9f	0.0060270573
221	0xbcd83d85	-0.026396522
222	0xbc05aebc	-0.008159336
223	0x3d7ba27f	0.061434265
224	0xbca0f56d	-0.019648278
225	0x3d8379b2	0.06419696
226	0x3bc9d7a3	0.006159739
227	0xbdc3fc56	-0.09569614
228	0x3dc816cf	0.097699754
229	0x3d790346	0.060794137
230	0x3db8d0a8	0.09024173
231	0x3c273bd0	0.0102071315
232	0xbd263ec2	-0.040587194
233	0x3d1de61b	0.038549524
234	0xbd1b8c84	-0.037975803
235	0x3c756b57	0.014979205
236	0xbb8575ee	-0.004072896
237	0xbcc7fbca	-0.024412055
238	0x3d931307	0.071813636
239	0xbdc801ed	-0.09765992
240	0x3c9310e0	0.017952383
241	0xbda9207e	-0.082581505
242	0x3d672a81	0.05643702
243	0x3d845be1	0.06462837
244	0x3d75fcf7	0.0600557
245	0xbc7a1484	-0.01526368
246	0x3cd94b83	0.026525265
247	0xbd9b7685	-0.07590965
248	0xbca10a2a	-0.019658167
249	0x3cf3fd74	0.029783942
250	0xbcb1bb84	-0.02169586
251	0x3d754d14	0.05988796
252	0x3dd3d423	0.10343196
253	0xbd8ef98d	-0.06981192
254	0x3d84d745	0.06486372
255	0x3d284a85	0.041086692

fc1.bias f4 [256]
0	0xbcf09ed2	-0.029372606
1	0xbc223ec6	-0.009902662
2	0xb97520a5	-0.00023377182
3	0x3c9cd89c	0.019146256
4	0xbc476677	-0.012170426
5	0xbb3930a0	-0.0028257743
6	0xbc6134d1	-0.013745503
7	0x3af20244	0.001846381
8	0xbc9a956c	-0.018870078
9	0xbd135e46	-0.035978578
10	0xbc991fef	-0.018691985
11	0xbc0d9477	-0.008641354
12	0xbcd007f3	-0.025394415
13	0xbcfa632a	-0.030564863
14	0x3c3fba25	0.011702095
15	0x3cc98c07	0.024602903
16	0xbc8291c3	-0.015938645
17	0xbcb08433	-0.021547412
18	0xbc1942f3	-0.009354341
19	0xbc4de3fb	-0.012566562
20	0xbc9ff91f	-0.01952797
21	0xbd0c476d	-0.034247804
22	0xbd0a1167	-0.033708002
23	0xbce0635e	-0.027391132
24	0xbcf31b68	-0.029676154
25	0x3c805569	0.015665727
26	0xbd4b5a0b	-0.04964642
27	0xbd3eb075	-0.046555
28	0xbd221044	-0.039566293
29	0xbcda9762	-0.026683513
30	0xbb7321cb	-0.0037099
31	0xbbec89d2	-0.007218578
32	0xbc8acfee	-0.016944852
33	0xbd1efbb3	-0.038814258
34	0xbc1eefe7	-0.009700752
35	0xbc3f5bec	-0.011679631
36	0xbc66ab7d	-0.014078972
37	0xbd09e67a	-0.033667065
38	0xbc40ec40	-0.011775076
39	0xbd17655a	-0.03696189
40	0xbc3c079c	-0.011476424
41	0xbd1591bc	-0.036515936
42	0xbd10ef97	-0.03538474
43	0xbb6b79da	-0.0035930783
44	0xbce628c4	-0.02809561
45	0xbcbfebb4	-0.023427822
46	0xbd1ac7fe	-0.037788384
47	0x3c8d5d40	0.01725638
48	0xbce4ec0d	-0.027944589
49	0xbb8d5210	-0.004312761
50	0x3ca8dc61	0.020612897
51	0xbc982a2d	-0.018574798
52	0x3bde771e	0.006789102
53	0xbd43d169	-0.04780713
54	0xbc4b8ffb	-0.012424464
55	0xbcf08273	-0.029359078
56	0xbd38e696	-0.04514178
57	0x3cae611f	0.021286545
58	0xbcbafe5b	-0.022826364
59	0x3ca41b2e	0.020032492
60	0xbc18c706	-0.009324795
61	0x3c668197	0.014068983
62	0xbd0a8a22	-0.03382314
63	0xbd07f3f9	-0.033191655
64	0xbcf06dae	-0.029349174
65	0xbc132bf6	-0.008982649
66	0xbc9773fe	-0.018487927
67	0xbc413f77	-0.011794916
68	0xbcd720f6	-0.026260834
69	0xbc99d16e	-0.018776622
70	0xbd4ee143	-0.050507795
71	0xbd1d19c3	-0.038354646
72	0xbce86a5f	-0.028371034
73	0xbcd7ad89	-0.026327865
74	0xbd2de059	-0.042450283
75	0xbcf9a7c3	-0.030475503
76	0xbd520847	-0.051277425
77	0xbca57b6f	-0.02020046
78	0xbbc6fcd4	-0.00607262
79	0x39bbc5ce	0.00035814795
80	0xbc88bdca	-0.016692061
81	0x3ae1ce06	0.0017227537
82	0xbcd5c000	-0.02609253
83	0xbd170616	-0.03687104
84	0xbce72ee4	-0.028220601
85	0x3bb6ec35	0.0055823573
86	0xbcb41c5d	-0.02198618
87	0xbc9281e3	-0.0178842
88	0xbcddcef4	-0.027076222
89	0xbd09e98c	-0.033669993
90	0xbb4cad3d	-0.0031231188
91	0x3c47b205	0.012188439
92	0x3cac8606	0.021060001
93	0xbc1d6170	-0.00960575
94	0xbcdb9444	-0.026804097
95	0xbcd1ee84	-0.025626428
96	0xbcf232e9	-0.029565291
97	0x37a7da88	2.0009713e-05
98	0x3aa3a5c1	0.0012485312
99	0x3b8038a2	0.003913001
100	0xbd1231c6	-0.035692
101	0xbcbb8918	-0.02289252
102	0xbc4537b9	-0.012037211
103	0xbc4b833e	-0.012421427
104	0xbbf13f51	-0.007362284
105	0xbca48ca8	-0.020086601
106	0xbbcb7187	-0.006208602
107	0x3cd0f434	0.02550707
108	0xba9d4d97	-0.0012001273
109	0xbb1a4abf	-0.0023543087
110	0xbcb0d21f	-0.021584569
111	0xbc852cab	-0.01625665
112	0xbcbaa21b	-0.022782376
113	0x3b8ea7a4	0.0043534804
114	0xbca4e33a	-0.020127881
115	0x3c17c087	0.009262211
116	0xbd0dca35	-0.034616668
117	0xbd3a715c	-0.045518264
118	0xbd5112ae	-0.051043205
119	0xbc067c1f	-0.008208304
120	0xbcc2460d	-0.023715043
121	0xbc3dbece	-0.011581136
122	0xbc8f9cf6	-0.0175309
123	0x3c98cde9	0.018652873
124	0xbcb3bd47	-0.02194084
125	0xbcc6b430	-0.024255842
126	0xbc834d71	-0.016028138
127	0xbcbc59f3	-0.02299211
128	0xbc266121	-0.010154993
129	0x3ca7c769	0.020480828
130	0xbc210be2	-0.009829493
131	0xbca72e3c	-0.020407788
132	0x3b79a293	0.0038091287
133	0xbd36f250	-0.04466468
134	0xbc99dac3	-0.018781072
135	0xbbe3559e	-0.0069376966
136	0xbaf525e3	-0.0018703308
137	0x3b9cf5fc	0.004790066
138	0xbd0b698f	-0.034036215
139	0xbd30300e	-0.04301458
140	0xbc5e9753	-0.013585883
141	0xbd319913	-0.043358874
142	0xbc3e4417	-0.011612914
143	0xbcdab8de	-0.02669948
144	0xbc9eceec	-0.019385777
145	0xbbc14132	-0.0058976645
146	0xbc453ba3	-0.012038144
147	0x3ce675c8	0.028132334
148	0xbd0bf204	-0.03416635
149	0xbbcacb10	-0.0061887577
150	0xbce4f578	-0.02794908
151	0x3c40e3c8	0.011773057
152	0xbc6481d7	-0.013946972
153	0x3a917562	0.0011097605
154	0xbc82f9b3	-0.015988206
155	0xbb539851	-0.0032286833
156	0x3c3be52c	0.011468213
157	0x3cb1ab27	0.021688057
158	0xbc2b542a	-0.010457078
159	0x3c521b81	0.01282394
160	0xbccebd78	-0.02523683
161	0xbc585e93	-0.013206142
162	0xbc742d4b	-0.014903377
163	0xbc772921	-0.0150854895
164	0xbbc698c8	-0.0060606934
165	0xbc4b5c4a	-0.01241214
166	0xbc71a0ff	-0.014747857
167	0xbcdc3b6a	-0.0268838
168	0xbbae3b03	-0.0053170933
169	0x3afc464e	0.0019247027
170	0xbcc1e4d7	-0.02366869
171	0x3c9cbe5b	0.019133737
172	0x3c4a7995	0.012358089
173	0xbc4497f1	-0.011999116
174	0xbd30e85a	-0.043190338
175	0xbcb86615	-0.022509614
176	0xbcd8ebd8	-0.026479647
177	0xbc3548ac	-0.01106469
178	0x399d9d9a	0.00030062796
179	0xbcb8e291	-0.022568973
180	0xbc263f1e	-0.010146884
181	0xbc48d15d	-0.012256947
182	0xbcd904a5	-0.026491472
183	0xbc47961c	-0.012181785
184	0x3bc6b670	0.0060642287
185	0xbcb5539c	-0.022134595
186	0xbca58041	-0.020202758
187	0xbd21090f	-0.03931528
188	0xbc7fe35b	-0.015618171
189	0xbcd8f0e7	-0.026482059
190	0xbb7b349d	-0.003833092
191	0xbd404493	-0.046940397
192	0xbce63f7e	-0.028106447
193	0xbd28c9c9	-0.041208062
194	0xbb8897c2	-0.0041684816
195	0xbd0a9b26	-0.033839367
196	0xbd0141ec	-0.03155701
197	0xbcf8ece2	-0.030386392
198	0xbd037742	-0.032096155
199	0xbd0bada2	-0.034101136
200	0xb9544822	-0.00020244767
201	0x3c94d4b4	0.018167831
202	0xbcb8b52f	-0.022547333
203	0xbcfdb26f	-0.030968873
204	0xbcf1eb13	-0.029531037
205	0xbc860513	-0.016359841
206	0xbc8dbf33	-0.017303085
207	0x3cd3e62d	0.025866592
208	0xbce07276	-0.02739833
209	0xbd42d116	-0.04756268
210	0xbc582ed1	-0.013194756
211	0xba17ec4e	-0.0005795405
212	0xbcf4021c	-0.029786162
213	0xbc1470d3	-0.0090601025
214	0xbd2c6a97	-0.04209384
215	0xbc1c0d1b	-0.009524609
216	0x3b624f1a	0.0034532011
217	0xbd370010	-0.044677794
218	0xb91904cf	-0.00014593008
219	0xbc1d087a	-0.0095845405
220	0xbd1fae89	-0.03898481
221	0xbcccf589	-0.025019424
222	0xbc6b77f0	-0.014371857
223	0xbd127bd1	-0.03576261
224	0xbc3992a5	-0.011326467
225	0xbb926d51	-0.004468598
226	0xbd266381	-0.040622238
227	0x3c4012ee	0.011723263
228	0xbd0a8376	-0.033816777
229	0xbc7f519c	-0.015583422
230	0xbcc3be8a	-0.023894567
231	0xbcc124b3	-0.02357707
232	0xbc2273ef	-0.009915336
233	0xbc2b98f1	-0.010473476
234	0xbd2cab2b	-0.042155426
235	0xbd09da79	-0.033655617
236	0x3c0c5eec	0.008567553
237	0xbc356f6c	-0.011073928
238	0xbcc658b7	-0.024212224
239	0xbd2a2c12	-0.041545935
240	0xbc8524f8	-0.01625298
241	0xbd21c820	-0.039497495
242	0xbcd17087	-0.025566353
243	0xbb974cee	-0.004617325
244	0xbce6f233	-0.028191661
245	0xbc9a9a13	-0.018872296
246	0xbc6afc2f	-0.014342352
247	0xbc3421a7	-0.0109943515
248	0xbc8d33fe	-0.017236706
249	0xbc82c06c	-0.015960895
250	0xbb8a3cf5	-0.0042186924
251	0xbd0b95f8	-0.03407857
252	0xbd3840a3	-0.044983517
253	0xbab35df3	-0.0013684615
254	0x3c78faf0	0.015196547
255	0xbc969c21	-0.018384995

fc2.weight f4 [128, 256]
0	0xbd9bbc43	-0.076042674
1	0xbcc25cab	-0.023725828
2	0x3d70b893	0.058769774
3	0xbdcee27a	-0.10101791
4	0x3cbc23d2	0.0229663
5	0xbb16b1ba	-0.0022994117
6	0x3d1cdb2a	0.03829495
7	0xbdf97d27	-0.12182074
8	0x3d264d89	0.040601287
9	0xbcbaaf9d	-0.022788817
10	0x3ce2212c	0.027603708
11	0xbccd327a	-0.025048483
12	0x3de58a99	0.11208076
13	0xbdee9af3	-0.11650648
14	0xbd041de5	-0.032255072
15	0x3d53c98c	0.051705882
16	0xbd1c4791	-0.03815419
17	0x3cd7c9a0	0.02634126
18	0x3d16e7dc	0.036842212
19	0x3dc8f784	0.09812835
20	0x3d16a200	0.03677559
21	0x3d60fb79	0.054927323
22	0xbd4cc712	-0.049994536
23	0xbc65dd49	-0.014029809
24	0xbd2e15f3	-0.0425014
25	0xbbe9d5da	-0.007136089
26	0x3d817123	0.06320407
27	0xbd8d9836	-0.069137976
28	0x3d928c18	0.07155627
29	0x3c6bae7b	0.014384861
30	0xbdabeae9	-0.08394415
31	0x3e0ac372	0.13551119
32	0x3cd67dae	0.026182976
33	0x3c22f6ae	0.009946508
34	0x3d10e2d3	0.035372566
35	0x3cf84851	0.03030792
36	0xbc373429	-0.01118187
37	0xbd81ecc6	-0.06343989
38	0xbc92ea66	-0.017934036
39	0xbd3bd876	-0.04586073
40	0x3d9d3385	0.07675842
41	0xbd017029	-0.031601105
42	0x3d00bbfc	0.031429276
43	0xbcadef17	-0.021232171
44	0xbd50236e	-0.05081504
45	0x3c88668a	0.016650457
46	0x3dc39043	0.09549
47	0xbc6651fa	-0.014057631
48	0xbc724889	-0.014787802
49	0xbe0e354f	-0.13887523
50	0xbc9812b5	-0.018563608
51	0xbc3efd69	-0.011657097
52	0x3c3802de	0.011231152
53	0x3b07110f	0.0020609533
54	0x3d90c1c5	0.070682086
55	0x3ca4e363	0.020127958
56	0xbd360a38	-0.04444334
57	0xbba8ba96	-0.005149196
58	0x3db532d6	0.08847587
59	0x3d746a63	0.05967177
60	0xbdee79ea	-0.11644347
61	0x3c986d38	0.018606767
62	0xbafb9f91	-0.0019197335
63	0x3d2c7fab	0.04211394
64	0xbc4b088c	-0.012392174
65	0xbcae77f4	-0.021297432
66	0xbd3f4a49	-0.046701703
67	0x3d7a0aa6	0.06104531
68	0xbc2aea55	-0.010431846
69	0x3d7607a9	0.0600659
70	0x3b2c13a8	0.0026256833
71	0x3ceb0065	0.028686712
72	0xbd8ace82	-0.067776695
73	0xbd45f92f	-0.048333343
74	0x3cc09a7a	0.02351116
75	0x3a8755c2	0.001032524
76	0x3b42aa5c	0.0029703593
77	0xbcf46d73	-0.029837346
78	0x3dd6c785	0.10487274
79	0x3d39ffb5	0.045409877
80	0x3c7d617e	0.0154651385
81	0xbe20a7fd	-0.15689082
82	0xbca8c46d	-0.020601476
83	0x3d4ae5c6	0.049535535
84	0x3d88db7c	0.06682488
85	0xbdfc67fd	-0.12324522
86	0xbd2afcd6	-0.04174503
87	0x3d726112	0.059174605
88	0x3d9fea1b	0.07808324
89	0xbcc58945	-0.024113307
90	0x3dd68e75	0.1047639
91	0xbd13b8c6	-0.036064886
92	0xbe0999c7	-0.13437568
93	0x3cf3d21f	0.02976328
94	0xbc7cad33	-0.015422153
95	0x3d8509a4	0.064959794
96	0xbdce6c2b	-0.10079225
97	0xbd808b7d	-0.06276605
98	0xbd4f6ccd	-0.05064087
99	0x3d3c8fd0	0.046035588
100	0xbac8a1f5	-0.0015307056
101	0x3cdf5758	0.027263328
102	0xbdd4c69c	-0.10389444
103	0x3cc1c18a	0.023651857
104	0xbdc4f0cc	-0.09616241
105	0xbdfd08bd	-0.12355182
106	0xbc4577ad	-0.012052459
107	0xbcc57a2f	-0.024106113
108	0x3ca91282	0.020638708
109	0x3dc423a6	0.09577112
110	0xbe03b48e	-0.12861845
111	0xbcf09586	-0.029368173
112	0xbd57346d	-0.05254023
113	0xbd9b3fd1	-0.075805314
114	0x3cdbb08e	0.026817586
115	0xbde78bf7	-0.11305993
116	0x3d0c6a3d	0.034281004
117	0x3ca16bf6	0.0197048
118	0xbca7d00b	-0.020484945
119	0xbd065455	-0.03279527
120	0xbd687d10	-0.056759894
121	0xbd5da0c3	-0.054108392
122	0xbd9f8f10	-0.07790959
123	0xbde75f88	-0.11297518
124	0x3d16f470	0.036854208
125	0xbd7fb4e2	-0.062428363
126	0x3d113e6d	0.035459924
127	0xbbce0a26	-0.006287831
128	0x3db28000	0.0871582
129	0xbd55f734	-0.052237704
130	0xbddfc5f3	-0.10926428
131	0x3e0c54bb	0.13704197
132	0x3b89cbd9	0.0042052087
133	0xbdaff058	-0.08590764
134	0x3bf8d1b9	0.0075933603
135	0xbbd1d508	-0.006403569
136	0xbc306d11	-0.010768191
137	0xbdf22745	-0.11823896
138	0x3dbbf57d	0.091776825
139	0xbd99f5a0	-0.075175524
140	0x3d2b6d07	0.041852023
141	0xbd3bcfe5	-0.04585256
142	0xba581c1b	-0.0008243934
143	0x3d34b58f	0.04411846
144	0xbe1911bb	-0.1494817
145	0x3dae2086	0.08502297
146	0xbda4ef98	-0.080535114
147	0xbd270d62	-0.040784247
148	0x3dbd3b7a	0.0923986
149	0x3ca6aed5	0.020347038
150	0xbd41446c	-0.047184393
151	0xba3e4187	-0.0007257689
152	0xbd4393c3	-0.04774834
153	0xbd1d5089	-0.038406882
154	0x3dd48872	0.103775874
155	0xbd9f1d41	-0.077692516
156	0xbc7c37d4	-0.01539417
157	0x3b803344	0.0039123613
158	0xbdc44c98	-0.095849216
159	0xbc9f6142	-0.019455556
160	0xbc368992	-0.011141198
161	0x3d243d1c	0.04009734
162	0xbc0d6972	-0.008631097
163	0x3ddb1596	0.106974766
164	0xbdb36c30	-0.087608695
165	0x3d9c9df2	0.07647313
166	0x3d0c2393	0.034213614
167	0xbd2e37c7	-0.042533662
168	0x3c7fc348	0.0156105235
169	0x3cf6ab26	0.030110907
170	0x3c907749	0.017635005
171	0x3d9f4010	0.07775891
172	0x3c84cb4e	0.016210224
173	0x3c6fb416	0.014630338
174	0x3d8c2e21	0.06844736
175	0xbdc4bf76	-0.09606831
176	0xbdbc3624	-0.09190014
177	0x3c6b3116	0.014354965
178	0xbd06fdd4	-0.032956913
179	0x3d4725c6	0.048620008
180	0x3a46bed6	0.00075815374
181	0x3d9f492e	0.0777763
182	0xbd78f610	-0.06078154
183	0xbdd6ae97	-0.10482519
184	0xbb803af4	-0.0039132778
185	0xbcdd3b0c	-0.027005695
186	0xbd6c2c42	-0.057659395
187	0x3c8d74e2	0.017267648
188	0xbdbbd51e	-0.09171508
189	0xbc01f604	-0.00793219
190	0xbd7a7864	-0.06114997
191	0xbdf51681	-0.11967183
192	0x3c6330ac	0.013866585
193	0x3d0dde8b	0.03463606
194	0x3d15d029	0.03657547
195	0x3bd34633	0.0064475774
196	0x3d14c9ad	0.036325146
197	0x3db5bf6b	0.08874401
198	0xbe0ca855	-0.13736089
199	0xbc3e6c1b	-0.011622454
200	0x3cc43716	0.023952048
201	0x3e091171	0.1338556
202	0x3d191b69	0.037379656
203	0xbd246c5a	-0.040142395
204	0x3d21eded	0.039533544
205	0x3dd5a341	0.10431529
206	0xbc8997c1	-0.016795995
207	0xbd341847	-0.043968465
208	0xbd510b9b	-0.05103646
209	0xbd940e1b	-0.07229253
210	0xbc3e93db	-0.011631931
211	0xbd68632b	-0.0567352
212	0xbcb2a470	-0.021806926
213	0xbda03ae8	-0.078237355
214	0x3caf409f	0.021393118
215	0x3db85aba	0.0900168
216	0xbd02f247	-0.031969335
217	0x3d3b9927	0.045800354
218	0xbcea5ee5	-0.028609702
219	0x3de27cd6	0.11058967
220	0xbdceb08e	-0.10092269
221	0x3d28dd9a	0.04122696
222	0xbc38d236	-0.011280587
223	0x3da362fb	0.079778634
224	0xbd1bf4dd	-0.038075317
225	0x3cccaf02	0.024985794
226	0xbbffec97	-0.007810186
227	0x3cfc7ebc	0.03082215
228	0x3d0505d4	0.03247626
229	0xbcbb34a8	-0.022852257
230	0x3ca341fc	0.019928925
231	0x3d64b4ad	0.05583637
232	0x3bfad4e2	0.007654772
233	0xbdc0ce44	-0.09414342
234	0x3da3e758	0.0800311
235	0xbdbaa34a	-0.09113176
236	0xbde9c26c	-0.11414036
237	0x3d385ca6	0.04501023
238	0x3dbf417a	0.093386605
239	0x3d3452df	0.044024345
240	0xbda340a2	-0.07971312
241	0x3dcc1534	0.09964982
242	0xbc4404bc	-0.011964019
243	0xbc975614	-0.018473662
244	0x3e38a867	0.1803299
245	0xbd93e74f	-0.07221853
246	0x3c34cdbb	0.011035378
247	0x3d2b18de	0.041771762
248	0xbc2b26a5	-0.010446225
249	0xbde045f3	-0.10950842
250	0xbcdbe2bc	-0.026841514
251	0x3db83c2d	0.089958526
252	0xbcf1eb24	-0.02953107
253	0x3bcb0b91	0.006196447
254	0xbd1aef50	-0.037825882
255	0xbde17140	-0.11007929

fc2.bias f4 [128]
0	0xbd11196c	-0.035424635
1	0xbce3558a	-0.02775075
2	0xbc1b2532	-0.009469317
3	0xbcfa26ab	-0.030536016
4	0xbb0125d3	-0.0019706383
5	0xbcac22f0	-0.021012753
6	0xbc68c407	-0.014206893
7	0xbc852d37	-0.016256912
8	0xbc5d6c46	-0.013514584
9	0xbca6384c	-0.020290516
10	0xbc59d252	-0.013294773
11	0x3bcec021	0.0063095246
12	0xbce34918	-0.027744815
13	0xbcc1be07	-0.023650182
14	0xbcd3f118	-0.025871798
15	0xbc9e44f8	-0.019319996
16	0xbc599d1b	-0.013282086
17	0xbcb0ae2d	-0.021567428
18	0xbc93bbed	-0.018033946
19	0xbc6b924c	-0.014378142
20	0xbbb417bd	-0.005495994
21	0xbcb6ce65	-0.022315213
22	0xbcb39465	-0.021921346
23	0xbacb3cd1	-0.0015505796
24	0xbcb21a7a	-0.02174114
25	0xbcf2d0aa	-0.029640514
26	0xbc9cf250	-0.019158512
27	0xbc4a087c	-0.012331124
28	0xbc800d67	-0.01563139
29	0xbc4a8ce4	-0.0123626925
30	0x3bfc5c53	0.0077014356
31	0xbc5bc1c4	-0.013412897
32	0xbc635e56	-0.013877472
33	0xbb2a9a55	-0.002603193
34	0xbcd5fc6e	-0.026121344
35	0xbc990d0b	-0.018682977
36	0xbd072288	-0.032991916
37	0xbca9a98c	-0.020710729
38	0xbd3952cf	-0.045244988
39	0xbcd2e8c3	-0.025745755
40	0x3a700780	0.0009156391
41	0xbc9087d2	-0.01764289
42	0xbcd93b75	-0.02651761
43	0xbc321de1	-0.0108713815
44	0xbccb392d	-0.024807537
45	0xbca481f6	-0.020081501
46	0xbbfbd555	-0.0076853433
47	0xbc6b7e55	-0.014373382
48	0xbc8bc747	-0.017062796
49	0xbb244d78	-0.002507059
50	0xbcd573bc	-0.026056163
51	0xbcfbefa6	-0.030753922
52	0xbcd5aea4	-0.026084252
53	0xbca6a15f	-0.02034062
54	0xbceb1bd3	-0.028699791
55	0xbd0699d8	-0.03286156
56	0xbd0e5b07	-0.03475478
57	0xbcf6a6cd	-0.030108834
58	0xbce34c1c	-0.027746253
59	0xbcb231af	-0.021752207
60	0xbcee29d6	-0.029072683
61	0xbd184476	-0.037174664
62	0xbce9d3f5	-0.028543452
63	0xbc678f52	-0.014133291
64	0xbc0f52fa	-0.0087478105
65	0xbc8cb777	-0.017177327
66	0xbce542f0	-0.02798602
67	0xbd095a9e	-0.033533685
68	0xbc9d531b	-0.019204667
69	0xbca54fcf	-0.020179657
70	0xbcb55b4d	-0.022138262
71	0x3b5f93b5	0.003411514
72	0xbc8ec0af	-0.017425863
73	0xbd0dfb9a	-0.034663774
74	0xbc7a24f7	-0.015267602
75	0xbcdb506e	-0.02677175
76	0xbbec76b0	-0.007216297
77	0xbc8a7ad4	-0.016904272
78	0xbcb9aca7	-0.022665335
79	0x3c9c35dd	0.019068653
80	0x3b1d52dc	0.0024005687
81	0xbd074935	-0.0330288
82	0xbc131cd4	-0.008979041
83	0xbc25579e	-0.01009169
84	0xbcd8ce80	-0.026465654
85	0xb8d05593	-9.934152e-05
86	0xbca91c2d	-0.020643318
87	0xbce481a5	-0.02789385
88	0xbbabe1d7	-0.005245428
89	0xbd076a04	-0.03306009
90	0xbc1d9099	-0.009616994
91	0xbcff14d2	-0.031137858
92	0xbc710469	-0.014710524
93	0xbc486c7f	-0.012232899
94	0xbca05263	-0.019570535
95	0xbd053850	-0.032524407
96	0xbc1464a8	-0.009057201
97	0xbc99d48a	-0.018778104
98	0xbc8e4ae0	-0.017369688
99	0xbc93dfc0	-0.018051028
100	0xbcb23307	-0.021752847
101	0xbca043ac	-0.019563518
102	0xbae42eb2	-0.0017408936
103	0xbc834fc4	-0.016029246
104	0xbc849267	-0.016183091
105	0xbcd2689a	-0.025684644
106	0xbc6e4bed	-0.014544469
107	0x3ba7ad86	0.005117121
108	0xbc448dd7	-0.011996708
109	0xbc9659b6	-0.018353324
110	0xbcc92601	-0.024554254
111	0xbcc28c09	-0.023748415
112	0xbc3142c0	-0.010819137
113	0xbc30e77b	-0.010797377
114	0xbc80e92a	-0.015736181
115	0xbc66c567	-0.01408515
116	0xbb74a298	-0.0037328359
117	0x3c0a48d8	0.008440219
118	0xbca5a9d9	-0.020222591
119	0x3bc616a7	0.006045181
120	0x3b517169	0.0031958467
121	0xbce1fb3d	-0.02758562
122	0x3b62ac6c	0.0034587635
123	0xbc7f5ecd	-0.015586567
124	0xbb63c76a	-0.0034756311
125	0xbc633fda	-0.013870204
126	0xbc80f6e4	-0.015742727
127	0xbcc5b581	-0.0241344

fc_action.weight f4 [3, 128]
0	0x3d0bad63	0.0341009
1	0x3d64f36c	0.055896208
2	0xbdef302b	-0.11679109
3	0x3d23a84b	0.03995542
4	0x3cf1b4b0	0.029505104
5	0x3d0be99b	0.03415833
6	0xbbff5506	-0.007792118
7	0x3d77b1e7	0.060472395
8	0x3dca5ce5	0.098809995
9	0x3e32727d	0.17426486
10	0x3d8b8162	0.06811787
11	0x3c43d382	0.011952283
12	0x3da2e42a	0.07953675
13	0x3e30767f	0.17232703
14	0xbb054b1d	-0.002033896
15	0xbdb67ca8	-0.08910495
16	0x3d861928	0.06547767
17	0xbe24defb	-0.16100685
18	0xbcfb2a97	-0.030659957
19	0xbd6a4be5	-0.057201285
20	0xbdf92584	-0.12165359
21	0xbd2b64ee	-0.0418443
22	0x3c141d9b	0.009040262
23	0xbc3036b3	-0.010755229
24	0x3da56376	0.08075611
25	0xbe26017c	-0.16211504
26	0x3be8726e	0.007093719
27	0xbd4ae186	-0.049531482
28	0x3d906efa	0.07052417
29	0x3d8b2f75	0.06796161
30	0x38a7da90	8.003891e-05
31	0x3d791f7c	0.06082104
32	0xbccbf402	-0.024896625
33	0x3d4f0b83	0.050548088
34	0x3d9a9cf3	0.07549467
35	0x3cc39d27	0.023878647
36	0x3cdd0f39	0.026984798
37	0x3d49820d	0.04919629
38	0x3d7a845a	0.061161377
39	0x3d506125	0.050873894
40	0xbc01af17	-0.00791528
41	0xbd4599dd	-0.04824244
42	0x3dd459d2	0.10368694
43	0xbd52b9e4	-0.05144681
44	0x3d537785	0.051627655
45	0xbd7d7dc2	-0.06188751
46	0x3def3c4c	0.116814226
47	0x3d2f1f53	0.042754482
48	0x3d406f4f	0.046981152
49	0xbe3d1bdf	-0.18467663
50	0xbddaa424	-0.106758386
51	0x3d0429f2	0.032266565
52	0x3db55d03	0.08855631
53	0xbdfa24b5	-0.122140326
54	0xbd7b51ab	-0.06135718
55	0xbdb5b5b8	-0.08872551
56	0xbcdb8788	-0.026798025
57	0x3e0a9cf2	0.13536432
58	0xbd1cdbc8	-0.038295537
59	0xbe0085dc	-0.12551063
60	0xbd8a995e	-0.06767534
61	0x3cf7c1ca	0.030243773
62	0x3d474b51	0.04865581
63	0xbcbba0a9	-0.022903757
64	0x3dcbeb4e	0.0995699
65	0x3d1f6efd	0.038924206
66	0x3db78d39	0.08962483
67	0x3d4338ce	0.047661595
68	0x3deabbd8	0.114616096
69	0xbddf67a1	-0.109084375
70	0x3dabe7d9	0.08393831
71	0x3c532fe1	0.012889833
72	0x3d3a35a8	0.045461327
73	0xbce7cac6	-0.028294932
74	0x3db8753b	0.09006735
75	0xbc06f3ee	-0.008236868
76	0xbc687058	-0.014186941
77	0x3dd21e84	0.10259727
78	0x3d538840	0.05164361
79	0x3db667cb	0.08906516
80	0x3e1fa896	0.15591654
81	0x392decfe	0.00016586852
82	0x3c9085e3	0.017641967
83	0x3dc73bb4	0.09728184
84	0x3db6295f	0.0889461
85	0x3c8cd711	0.017192395
86	0xbd873317	-0.066015415
87	0xba475741	-0.00076042494
88	0xbe1afb62	-0.15134957
89	0xbd978c00	-0.0739975
90	0xbdca5cb2	-0.098809615
91	0x3d10496d	0.035226274
92	0xbd4e7c9a	-0.050411798
93	0x3dfcf9d9	0.12352342
94	0x3e0c9896	0.13730082
95	0x3d524090	0.051331103
96	0x3d1c69ca	0.038186826
97	0xbd41128d	-0.047136832
98	0x3d8a9b74	0.067679316
99	0xbbd286a8	-0.0064247437
100	0x3d61d804	0.05513765
101	0x3de9d113	0.11416831
102	0x3d8ecbec	0.06972489
103	0xbad87b04	-0.0016516154
104	0xbd036fb9	-0.03208897
105	0xbdb70c1e	-0.08937858
106	0x3d5bee12	0.05369384
107	0xbd063dcb	-0.032773774
108	0xbc986467	-0.018602563
109	0x3c9c5989	0.019085662
110	0x3d6ff44f	0.0585826
111	0x3da73806	0.081649825
112	0xbd3651cc	-0.0445116
113	0xbd318e7f	-0.043348785
114	0x3d1874a1	0.0372206
115	0xbd2c20c8	-0.04202345
116	0xbdb8702b	-0.09005769
117	0xbdc6a8b8	-0.09700149
118	0x3cc87e50	0.024474293
119	0xbd119172	-0.035539098
120	0xbdfc7de5	-0.123287
121	0xbc9da296	-0.019242566
122	0xbd8f9809	-0.0701142
123	0xbd3a6f1a	-0.04551611
124	0xbd245ef4	-0.040129617
125	0xbdfb9499	-0.12284202
126	0xbe070eff	-0.13189314
127	0xbd2fdf36	-0.04293748
128	0x3dc83eeb	0.09777626
129	0x3d443259	0.047899578
130	0x3dcdaac6	0.10042338
131	0x3b7caaa4	0.0038553858
132	0xbd41bc50	-0.04729873
133	0x3c955864	0.018230624
134	0x3ca75efa	0.02043103
135	0xbab29676	-0.0013625163
136	0xbcab4b4f	-0.020909933
137	0x3d2bdd5c	0.04195915
138	0xbcf4a2f2	-0.029862855
139	0x3b863717	0.0040959227
140	0x3c55dee7	0.013053632
141	0xbcc10c01	-0.023565294
142	0xbbb0408c	-0.0053787883
143	0x3ddb1c8a	0.10698803
144	0x3e768809	0.24075331
145	0x3c813983	0.015774494
146	0xbcdb107e	-0.026741263
147	0xbdcaf6b2	-0.09910335
148	0xbd9d6c53	-0.07686677
149	0x3d312615	0.04324921
150	0xbcdc4026	-0.026886057
151	0x3d8d2d44	0.06893399
152	0x3dcf79e5	0.101306714
153	0xbdba7047	-0.091034465
154	0xbdc6e5f4	-0.09711829
155	0xbd892b2f	-0.0669769
156	0x3c348c2e	0.01101975
157	0x3cabcca9	0.020971613
158	0xbd96a24a	-0.07355173
159	0x3d2f62cc	0.04281883
160	0x3dcb8ccf	0.099389665
161	0x3dc3dc0f	0.09563457
162	0xbc96c994	-0.018406667
163	0xbd8a6d4b	-0.06759127
164	0x3d091c8a	0.033474483
165	0x3c9123a9	0.0177172
166	0x3df78c1c	0.120872706
167	0x3d5ff3f3	0.054676007
168	0xbdf59c93	-0.11992755
169	0xbd17bb87	-0.037044074
170	0x3ddb34b9	0.107034154
171	0xbe26e6f0	-0.16299033
172	0x3d52a08c	0.05142264
173	0xbe13056b	-0.14357536
174	0x3d4d1106	0.050065063
175	0xbd696bb0	-0.056987464
176	0xbbce78c8	-0.0063010193
177	0xbd0495b8	-0.032369345
178	0xbdb6e219	-0.089298435
179	0xbd926836	-0.07148783
180	0xbdadf44d	-0.08493862
181	0xbcbc9f7b	-0.023025265
182	0xbdd8e808	-0.105911314
183	0x3cf60008	0.030029312
184	0xbd1d41b4	-0.038392738
185	0xbd4119e9	-0.04714385
186	0x3c844020	0.016143858
187	0x3b74f735	0.0037378792
188	0x3dc36f7b	0.095427476
189	0xbcaea8bb	-0.021320691
190	0x3d43f9b7	0.04784557
191	0x3c6e15be	0.014531551
192	0xbce3d7c5	-0.027812848
193	0x3e0ab992	0.13547352
194	0x3b967f72	0.0045928294
195	0x3bf02ca6	0.0073295413
196	0x3dfa6aa3	0.122273706
197	0x3cde8b58	0.027166054
198	0x3d12f232	0.035875507
199	0x3e0c87a4	0.13723618
200	0xbd0a32ba	-0.033739783
201	0xbd146b98	-0.036235422
202	0xbd4182b9	-0.047243807
203	0xbd4557a8	-0.0481793
204	0x3cebff21	0.028808178
205	0xbd3e4b8b	-0.046458762
206	0x3dbd4dbf	0.092433445
207	0xbda158c4	-0.07878259
208	0xbd20008f	-0.039063033
209	0x3cc819a0	0.024426281
210	0xbd55afcc	-0.052169606
211	0xbcd26ecc	-0.025687598
212	0xbdcd0ac8	-0.10011822
213	0x3d232bb5	0.039836604
214	0xbdfc1d04	-0.12310222
215	0xbd84f46c	-0.06491932
216	0x3d9cfc05	0.076652564
217	0xbd9c0d16	-0.076196834
218	0x3cf7301d	0.03017431
219	0xbc81e00c	-0.015853904
220	0xbdbdbcb5	-0.09264509
221	0x3dc98857	0.09840458
222	0x3e27eb07	0.1639825
223	0x3d686dca	0.056745328
224	0xbc2c9ec4	-0.0105359
225	0xbd3900bf	-0.045166727
226	0x3d277023	0.040878426
227	0x3ca7e224	0.020493574
228	0x3d986a2e	0.07442127
229	0x3dc2afaf	0.09506165
230	0xbd10c27a	-0.035341717
231	0xbdf60d54	-0.12014261
232	0xbd8a4c77	-0.06752866
233	0x3d4ac506	0.049504302
234	0x3dae2de4	0.08504847
235	0x3bf1f7db	0.007384283
236	0xbd13d8ab	-0.036095303
237	0x3a56e7aa	0.0008197973
238	0x3c65c984	0.014025096
239	0x3ccc3da0	0.024931729
240	0x3c8a9b15	0.016919652
241	0x3d98b61f	0.07456612
242	0xbd9ecf55	-0.07754389
243	0x3c7171e4	0.014736626
244	0xbd9d5ed7	-0.07684105
245	0xbdae052e	-0.08497082
246	0x3c3377d3	0.010953861
247	0xbdd43338	-0.10361332
248	0x3a5a3448	0.00083238306
249	0x3e314ee6	0.17315254
250	0xbcbcc709	-0.023044126
251	0x3de64f58	0.11245602
252	0xbdf0d968	-0.11760217
253	0x3d9cadcc	0.076503366
254	0x3dc22947	0.09480529
255	0x3e2f4317	0.17115436

fc_action.bias f4 [3]
0	0xbc5a9c71	-0.013342963
1	0xbb9dc578	-0.0048148
2	0x3ca39e69	0.019972997
