checkpoint_goalie_actor.pth (torch_old, 479262 bytes, 6 tensors)

fc1.weight f4 [256, 336]
-0.03964788 -0.13345732 -0.06049039 -0.13369319 -0.07893329 0.044710014 -0.05606036 -0.12991278
0.018566506 -0.0058145644 0.009457461 0.006720185 0.0068130684 -0.047829546 0.101701215 -0.07369767
0.006114639 0.026385657 0.0035607426 0.006251479 0.040546514 -0.07485459 -0.0275666 -0.03997446
0.113685414 -0.021519652 0.14350408 -0.008748316 0.01655076 -0.03871167 0.06992674 0.041374233
-0.010862691 0.039254732 -0.0056565916 -0.020258853 -0.022147067 -0.032947507 -0.06330827 -0.026315441
-0.0097975265 0.003957917 0.0054546543 -0.021667225 -0.017566668 -0.044520967 -0.15715997 -0.077990524
-0.00525336 0.0281623 0.0020578909 0.027123079 -0.016695367 -0.12988476 0.023466432 -0.045103814
0.074425906 0.011740219 -0.026365956 0.015723154 0.018978843 0.017748732 -0.0042924373 -0.09470917
0.070061855 -0.039428953 -0.0103513235 0.088248335 0.037422687 0.008775368 -0.07903939 -0.095316
0.07160048 0.022784796 -0.007356634 0.029741703 -0.11621212 0.024876922 0.009227076 -0.022162583
-0.07343956 -0.0070452 -0.019432854 0.005520524 0.02349656 0.028332572 0.063967854 -0.01355569
-0.119895294 -0.09518235 -0.051788673 -0.01212321 0.09384659 0.05167411 -0.08993522 -0.030878892
-0.13127577 -0.017179428 0.048240576 -0.004591694 -0.117279485 0.013214734 -0.07020197 -0.04081159
-0.029253341 0.033125512 0.031197146 -0.13274553 0.0057671648 -0.09612344 0.06616172 -0.14018685
-0.0681052 0.10468406 0.026618913 -0.05942081 0.030781843 -0.001181642 -0.10505077 -0.017101418
-0.09221343 -0.014235626 0.009759716 0.07812062 -0.039186172 -0.0071165436 -0.03682141 -0.054647047
-0.018735146 0.01048583 0.028235171 -0.088892214 0.03309938 -0.07639621 -0.04876421 0.035561897
-0.10487188 -0.009829662 0.030419048 0.020477615 0.03713233 -0.06408789 0.036583275 -0.037185904
-0.04541401 0.0150098605 -0.07284481 -0.020416323 -0.015750904 -0.0073067546 0.11486847 0.06717708
-0.020129696 -0.0048785442 0.008755867 -0.027138662 -0.14745371 -0.058907602 -0.03160028 -0.07526383
0.050122272 0.00019294872 0.0043058763 -0.043479357 -0.024480207 -0.002919863 -0.06974354 -0.044704795
0.07928639 -0.019129643 -0.0038494358 -0.08648587 0.053036056 -0.028835136 -0.053914294 -0.054053683
0.042625424 -0.017952215 -0.050078504 -0.060558043 0.009980231 -0.048888467 0.017267957 0.023540065
-0.14447564 -0.044490382 0.0048612715 -0.023113972 -0.09940017 0.035045605 -0.020930566 0.04573643
-0.056612447 0.04266902 0.020557439 -0.0031901868 -0.049742773 -0.02808626 0.05039636 -0.042936053
-0.004343016 0.020770308 -0.020557286 -0.023243291 0.07705553 -0.015840953 -0.11085864 0.0060700425
0.0861199 -0.03398803 -0.0466829 -0.13857014 -0.053702775 -0.016207958 0.0059002186 0.00843576
-0.043157015 -0.0065965285 -0.06082856 -0.062361874 0.057108633 0.059005167 -0.0037157973 -0.02583974
-0.04801437 0.00602597 -0.05337582 0.004698785 0.003740925 0.024968714 0.040055826 0.015513923
0.03146707 -0.07119489 -0.073646314 0.09421641 0.020811634 -0.016497042 -0.017189689 -0.09982134
0.113729954 0.017726798 0.0414532 -0.02113933 0.013135176 -0.013598612 -0.015880577 -0.009998559
0.019446038 -0.027272012 0.029247852 0.037915442 -0.15189008 -0.022800323 -0.029766442 -0.002745361
00000000: d165 22bd 09a9 08be c5c4 77bd dee6 08be
00000010: c7a7 a1bd d921 373d 8c9f 65bd db07 05be
00000020: c918 983c 1a88 bebb 77f3 1a3c ff34 dc3b
00000030: 2940 df3b eae8 43bd ba48 d03d ceee 96bd
00000040: 4f5d c83b bc26 d83c 595b 693b 35d9 cc3b
00000050: 1a14 263d 5d4d 99bd 5ad3 e1bc 42bc 23bd
00000060: e6d3 e83d fb49 b0bc bcf2 123e 1955 0fbc
00000070: 7695 873c 2190 1ebd c035 8f3d 0778 293d
00000080: 6ef9 31bc 92c9 203d ee5a b9bb e5f5 a5bc
00000090: c46d b5bc f7f3 06bd c4a7 81bd 7b93 d7bc
000000a0: ce85 20bc 6ab1 813b f5bc b23b 777f b1bc
000000b0: f9e7 8fbc 9e5b 36bd 8bee 20be 7fb9 9fbd
000000c0: 6124 acbb a0b4 e63c aedd 063b 3831 de3c
000000d0: b9c4 88bc 8300 05be ad3c c03c c7be 38bd
000000e0: 9c6c 983d 0c5a 403c 6bfd d7bc d8cd 803c
000000f0: 8579 9b3c ca65 913c 93a7 8cbb e2f6 c1bd
00000100: 977c 8f3d 4180 21bd 9998 29bc 8bbb b43d
00000110: 8848 193d 90c6 0f3c 67df a1bd 0935 c3bd
00000120: 46a3 923d 2ea7 ba3c eb0f f1bb dfa4 f33c
00000130: 9f00 eebd b0ca cb3c 292d 173c 4e8e b5bc
00000140: 7b67 96bd 6cdb e6bb a631 9fbc 83e5 b43b
00000150: dc7b c03c b619 e83c 9401 833d af18 5ebc
00000160: aa8b f5bd f7ee c2bd 5c20 54bd 6ea0 46bc
00000170: a432 c03d 3ba8 533d f52f b8bd bbf5 fcbc
00000180: 286d 06be dfbb 8cbc e997 453d ec75 96bb
00000190: 3a30 f0bd 9d82 583c 0dc6 8fbd 0e2a 27bd
000001a0: b4a4 efbc 9eae 073d 2891 ff3c 72ee 07be
000001b0: 7cfa bc3b 5edc c4bd cc7f 873d 248d 0fbe
000001c0: bd7a 8bbd 9964 d63d e80f da3c 3c63 73bd
000001d0: 342a fc3c 53e1 9aba dc24 d7bd 4618 8cbc
000001e0: 65da bcbd 8b3c 69bc 37e7 1f3c b4fd 9f3d
000001f0: ae81 20bd e531 e9bb 0cd2 16bd 95d5 5fbd
00000200: 737a 99bc c2cc 2b3c 724d e73c 1f0d b6bd
00000210: 3793 073d 9e75 9cbd fbbc 47bd 5aa9 113d
00000220: 11c7 d6bd 970c 21bc 5e31 f93c acc0 a73c
00000230: 1218 183d 8340 83bd 58d8 153d 3f50 18bd
00000240: 0a04 3abd ebeb 753c a92f 95bd 2240 a7bc
00000250: 0a08 81bc 806d efbb 2940 eb3d 2394 893d
00000260: 08e7 a4bc 32dc 9fbb c574 0f3c e651 debc
00000270: 1bfe 16be 1949 71bd 4c6f 01bd ec23 9abd
00000280: 034d 4d3d 4752 4a39 4f18 8d3b 6917 32bd
00000290: b78a c8bc 2c5b 3fbb b3d5 8ebd 601c 37bd
000002a0: e760 a23d c5b5 9cbc d146 7cbb 811f b1bd
000002b0: 563c 593d aa37 ecbc 3cd5 5cbd 6567 5dbd
000002c0: ff97 2e3d 8610 93bc 1e1f 4dbd b60b 78bd
000002d0: 1f84 233c 463f 48bd 8875 8d3c 18d7 c03c
000002e0: 6cf1 13be 8c3b 36bd 4d4b 9f3b 8359 bdbc
000002f0: 5192 cbbd fb8b 0f3d 9476 abbc 1f56 3b3d
00000300: 74e2 67bd b6c5 2e3d 1368 a83c 7412 51bb
00000310: 14bf 4bbd 2815 e6bc 6a6c 4e3d b7dd 2fbd
00000320: dc4f 8ebb 7e26 aa3c c167 a8bc b768 bebc
00000330: 4acf 9d3d e3c4 81bc db09 e3bd 35e7 c63b
00000340: a15f b03d 0837 0bbd 9236 3fbd 55e5 0dbe
00000350: 71f7 5bbd 8dc6 84bc 9f56 c13b 2436 0a3c
00000360: 69c5 30bd b127 d8bb 5e27 79bd 2a6f 7fbd
00000370: beea 693d 67af 713d bc84 73bb ddad d3bc
00000380: b7aa 44bd 8075 c53b 9ba0 5abd 44f8 993b
00000390: 4f2a 753b 308b cc3c 9411 243d 1c2e 7e3c
000003a0: 9de3 003d a0ce 91bd e1d3 96bd 88f4 c03d
000003b0: 297d aa3c ce24 87bc 64d1 8cbc 216f ccbd
000003c0: 40eb e83d ca37 913c d5ca 293d 632c adbc
000003d0: ec34 573c b6cc 5ebc fc17 82bc ffd0 23bc
000003e0: 4c4d 9f3c 8e69 dfbc 3199 ef3c 394d 1b3d
000003f0: 1389 1bbe bec7 babc c1d8 f3bc 84eb 33bb

fc1.bias f4 [256]
-0.042008385 -0.02289251 0.016615033 -0.009363309 -0.027638014 -0.010975958 0.0023562305 -0.0048390883
0.027784918 -0.0014928072 -0.003007226 -0.011116798 -0.01086837 -0.016258035 -0.015076887 -0.025788762
-0.003989054 -0.031010589 -0.034552068 -0.042779233 -0.017423999 -0.0154866 -0.029536298 -0.034661908
-0.026252996 -0.011882127 -0.012795627 -0.012665953 -0.03606254 -0.018899485 -0.030598586 -0.008698739
-0.002323283 -0.017377846 -0.018616838 -0.0015402442 -0.031345237 0.007867849 -0.05049791 -0.029116083
-0.012582275 -0.009413473 -0.007737705 0.0022824286 -0.005007013 -0.014688799 -0.021532048 0.0030477017
-0.027984796 -0.015086099 -0.01975058 -0.012045642 0.0016003688 -0.0018706389 -0.009442122 -0.007696414
-0.01565799 0.0020402025 0.00832817 -0.020742832 -0.023830764 -0.010775937 -0.0077946135 -0.011851092
-0.010459257 -0.03183158 -0.027870111 -0.012750868 -0.025329877 -0.012039512 -0.023048175 0.001107418
-0.040864833 -0.010055865 -0.037211068 -0.013596919 0.0031011528 0.017520973 -0.014035649 -0.01319896
-0.02244304 -0.016034085 -0.017900893 0.016499085 -0.01746245 -0.02474423 -0.01677272 -0.011149351
-0.03132944 -0.031961057 -0.004469402 -0.018889707 0.0012970486 0.016134443 0.0018717662 -0.017849192
-0.013743827 0.017213415 0.004189991 -0.01123335 -0.016207289 -0.015171528 -0.022486381 0.0065508513
-0.030929416 -0.011392815 -0.016686877 -0.034795083 -0.014052447 0.0049242256 -0.002616716 0.0021998847
-0.00543821 -0.0113192955 0.02065179 -0.0044802735 0.020308055 -0.0028016283 0.0014212695 0.020784024
-0.008216065 -0.029014036 -0.018649237 -0.001288242 0.01781174 -0.00718917 -0.012115525 -0.006160823
0.009807041 -0.005461624 -0.013495581 -0.024752213 -0.01630034 -0.032590147 -0.029904425 -0.014116053
-0.009486491 -0.000118942786 0.025838627 -0.010086023 1.0574741e-05 0.009836281 0.004300982 -0.04718923
-0.016061895 -0.0032671785 0.0038068402 -0.011439466 -0.006126423 -0.0033670792 -0.015169322 -0.022678647
-0.009877535 -0.0044369274 -0.025726361 0.0043184403 0.008199822 -0.003975312 -0.024869809 -0.009780557
-0.013402329 -0.009882128 -0.033779453 -0.029795697 -0.0023824142 -0.0050361953 -0.0014278173 -0.0143707665
-0.016403634 -0.01862043 -0.0062936232 0.0071271774 -0.018890064 -0.0061732135 -0.017661186 -0.03283866
-0.00047743417 -0.01547666 0.0021760024 -0.005029088 -0.026935184 -0.015729686 -0.0077569312 -0.024226643
-0.0011501412 -0.013854593 -0.0028283943 0.009225189 0.0071608666 -0.038211185 -0.0044776755 -0.028054593
-0.023034012 -0.02619557 -0.03663849 -0.025667515 -0.026379438 -0.0044537536 0.034639362 -0.023433719
-0.0044031623 -0.019541752 -0.03060184 0.0013137233 0.013885566 -0.018595217 -0.013142639 -0.009622978
-0.02526224 -0.031400967 -0.038796503 -0.0077092596 -0.023058238 0.008610659 -0.02806821 -0.01768816
-0.0038693738 -0.032893077 -0.018162303 -0.029242255 -0.033268627 -0.016148321 -0.03473313 -0.026231768
0.00955021 -0.015677987 0.024848348 0.0027676707 -0.034477122 -0.027448408 -0.032261163 -0.019729085
-0.009157937 -0.0049292417 0.0023926303 -0.026565826 -0.006859448 -0.02219855 -0.029167762 -0.013393911
-0.027687013 0.0004966887 -0.031172289 -0.017416604 -0.016833957 -0.03404906 -0.018235816 -0.019039838
-0.0033054685 0.0028637208 -0.004436565 -0.0014233919 -0.02188511 -0.020588309 -0.016822968 -0.0027510892
00000000: fc10 2cbd 1389 bbbc 401c 883c 9068 19bc
00000010: 1e69 e2bc 81d4 33bc fd6a 1a3b 3791 9ebb
00000020: 329d e33c 4caa c3ba e114 45bb 3b23 36bc
00000030: 3f11 32bc 922f 85bc 0c05 77bc f442 d3bc
00000040: 9cb6 82bb eb09 febc 7886 0dbd 4739 2fbd
00000050: c6bc 8ebc 82bb 7dbc 1bf6 f1bc a5f9 0dbd
00000060: 8610 d7bc 41ad 42bc c0a4 51bc db84 4fbc
00000070: 50b6 13bd 18d3 9abc e3a9 fabc 2885 0ebc
00000080: 3942 18bb fc5b 8ebc 5782 98bc 05e2 c9ba
00000090: dd63 00bd 27e8 003c e5d6 4ebd da84 eebc
000000a0: e325 4ebc f83a 1abc 938c fdbb cc94 153b
000000b0: df11 a4bb 4aa9 70bc fa63 b0bc f3bb 473b
000000c0: 5f40 e5bc af2b 77bc f8cb a1bc 165b 45bc
000000d0: 77c3 d13a 3a30 f5ba 21b3 1abc 3332 fcbb
000000e0: 2f45 80bc ebb4 053b e072 083c dfec a9bc
000000f0: bc38 c3bc 8e8d 30bc f569 ffbb 152b 42bc
00000100: 4e5d 2bbc d561 02bd dc4f e4bc 04e9 50bc
00000110: 9a80 cfbc 6041 45bc 87cf bcbc c826 913a
00000120: e261 27bd 5bc1 24bc a26a 18bd 9dc5 5ebc
00000130: b63c 4b3b 2588 8f3c c7f5 65bc 7340 58bc
00000140: 77da b7bc ea59 83bc e5a4 92bc 1729 873c
00000150: 690d 8fbc 69b4 cabc f166 89bc c4ab 36bc
00000160: 4d53 00bd 99e9 02bd 1074 92bb 96be 9abc
00000170: bb01 aa3a 612c 843c 0d56 f53a 7838 92bc
00000180: ca2d 61bc 2603 8d3c 314c 893b 160c 38bc
00000190: 26c5 84bc 0092 78bc 5c35 b8bc 86a8 d63b
000001a0: b05f fdbc eea8 3abc ebb2 88bc 4a85 0ebd
000001b0: 3c3c 66bc 665b a13b 367d 2bbb f12b 103b
000001c0: 0333 b2bb 9174 39bc f12d a93c 42cf 92bb
000001d0: 145d a63c 869b 37bb e449 ba3a 4243 aa3c
000001e0: ad9c 06bc d8ae edbc 49c6 98bc 3bda a8ba
000001f0: ede9 913c 2193 ebbb 3280 46bc bbe0 c9bb
00000200: b6ad 203c 6cf7 b2bb 921c 5dbc 27c5 cabc
00000210: 4a88 85bc 3f7d 05bd 20fa f4bc 0447 67bc
00000220: 3a6d 1bbc ec70 f9b8 87ab d33c d93f 25bc
00000230: 2b6a 3137 5a28 213c 41ef 8c3b 7e49 41bd
00000240: 3c94 83bc 291e 56bb 2e7c 793b 996c 3bbc
00000250: 29c0 c8bb 37aa 5cbb bf88 78bc 92c8 b9bc
00000260: 62d5 21bc a563 91bb 17c0 d2bc b481 8d3b
00000270: 8c58 063c 5643 82bb c5bb cbbc a13e 20bc
00000280: 7195 5bbc a6e8 21bc 535c 0abd 1b16 f4bc
00000290: 4722 1cbb ab06 a5bb 9925 bbba 5d73 6bbc
000002a0: ea60 86bc df89 98bc bd3a cebb 198b e93b
000002b0: 56bf 9abc ab48 cabb 31ae 90bc d581 06bd
000002c0: 2150 fab9 d191 7dbc 439b 0e3b 0ccb a4bb
000002d0: 2da7 dcbc 8bdb 80bc db2d febb f476 c6bc
000002e0: 56c0 96ba 60fe 62bc 955c 39bb 3f25 173c
000002f0: b4a5 ea3b 5583 1cbd 77b9 92bb bfd2 e5bc
00000300: d3b1 bcbc 1898 d6bc 3e12 16bd ae44 d2bc
00000310: b119 d8bc cbf0 91bb 01e2 0d3d 12f8 bfbc
00000320: 6748 90bb 0616 a0bc b6b0 fabc 3d31 ac3a
00000330: 4980 633c ff54 98bc 3954 57bc b2a9 1dbc
00000340: c2f2 cebc 4d9e 00bd 15e9 1ebd f59d fcbb
00000350: a1e4 bcbc b913 0d3c 4eef e5bc c3e6 90bc
00000360: 5295 7dbb e4ba 06bd 1cc9 94bc 748d efbc
00000370: af44 08bd 7c49 84bc 5444 0ebd 01e4 d6bc
00000380: 7c78 1c3c 1f6f 80bc c38e cb3c cf61 353b
00000390: e237 0dbd 7cdb e0bc 4824 04bd e49e a1bc
000003a0: 2c0b 16bc 7a85 a1bb adcd 1c3b 93a0 d9bc
000003b0: 38c5 e0bb bcd9 b5bc 3bf1 eebc 2272 5bbc
000003c0: e0cf e2bc 3734 023a 075d ffbc 44ad 8ebc
000003d0: 5ee7 89bc 0777 0bbd 4763 95bc 6ff9 9bbc
000003e0: 8fa0 58bb 43ad 3b3b 9b60 91bb 1b91 baba
000003f0: 6748 b3bc d0a8 a8bc 52d0 89bc 9e4b 34bb

fc2.weight f4 [128, 256]
-0.009694732 0.09858142 -0.077097 0.14219198 -0.108555436 -0.023741761 0.048454396 0.05162216
-0.035326343 -0.038986158 -0.043855533 -0.0918578 -0.018266294 -0.04845195 0.026277563 0.06088523
0.051617123 -0.034097604 0.04406082 -0.08470904 -0.03983903 0.042927183 -0.049485 0.15113236
-0.1091491 0.027297083 0.042074315 -0.13205892 -0.098258615 0.08886001 0.09911411 0.13778405
-0.014961769 -0.09012175 -0.025029443 -0.017936017 -0.08417951 -0.08824096 0.05709591 -0.016176097
-0.0014549926 -0.07256591 -0.01852927 -0.027220841 0.061768092 -0.13148175 0.07264489 -0.07128217
-0.0038150158 -0.04733134 0.07837425 -0.06654764 0.09067089 0.05543561 0.038138162 0.02778308
0.08060799 -0.07076234 -0.07625811 -0.09191025 0.059104294 -0.10359393 0.025253199 -0.021308733
0.011261525 -0.042748306 -0.07706113 -0.13687056 0.030204108 -0.102416486 -0.09425023 -0.090889595
-0.11011693 0.038783778 0.0683466 -0.013591649 -0.11299801 -0.12468882 -0.035945233 -0.07103509
0.035158638 -0.092554964 0.00043295574 -0.064724684 -0.0558511 0.075975865 -0.15308233 -0.06267547
-0.034265053 0.12655652 -0.024811953 0.04305899 0.0045881975 0.021662697 0.025277164 -0.026705503
0.02027838 0.10046026 -0.092190884 0.014664434 0.026834108 0.07653494 -0.06450843 0.025147652
-0.0039235563 -0.07988812 -0.033698153 -0.10482541 -0.036959913 -0.049972564 -0.037547138 -0.027330674
-0.043567885 -0.005298357 0.03287059 0.11222083 0.050640695 0.017213795 0.011451685 -0.06896811
0.07112885 -0.012774546 0.018801318 0.019295463 -0.082662724 0.066036485 -0.013080016 0.029106908
-0.044234037 0.047659524 0.025497032 0.03862718 -0.12846285 0.057975385 0.042992573 -0.024624806
-0.052501854 -0.030207226 0.05879944 0.008187117 -0.090135455 -0.017950192 -0.013565103 0.090253994
-0.026371906 0.022645824 -0.019781781 -0.012931294 0.027211742 0.00045368331 0.012098318 -0.028678482
-0.088933066 -0.069294415 0.01968729 -0.020493323 -0.054174706 0.011300462 0.016109392 -0.034121543
0.0684123 0.052185338 -0.06444586 0.00983179 -0.113516875 -0.060771674 -0.074025586 0.044187114
0.06806606 0.0755781 -0.033067793 -0.12012938 -0.037563577 -0.039235465 -0.013863553 -0.0055889185
0.09041523 -0.04545522 -0.015210265 -0.06067135 0.022770634 -0.005671063 -0.07752355 -0.07473507
-0.035770394 -0.0046136 -0.026055261 -0.041496057 -0.024354152 0.061518773 -0.048388243 -0.020919973
-0.030776037 -0.014814752 0.04900857 -0.034670774 -0.014628128 -0.05288209 -0.011809074 0.027663743
-0.06799645 0.049635082 -0.059012633 0.02148274 0.0038002797 0.011291991 -0.017012876 0.05642622
0.07625418 0.0041946457 0.10957722 -0.01386053 0.019294044 -0.038800117 -0.038614873 0.08659465
-0.08251381 0.00032707021 -0.14984153 -0.026140869 0.007220207 -0.110690966 -0.10750587 -0.09546772
0.04773485 -0.030925248 -0.08434509 0.031358697 -0.022392854 -0.0034068797 0.00055722677 0.13288762
-0.08040222 -0.06857248 0.06301515 0.0106829805 -0.03173698 -0.043854848 -0.044151627 -0.0070847813
-0.019736769 0.010017421 0.012385569 -0.091566235 0.027627442 -0.022038044 0.1740829 -0.005112795
0.015615814 -0.013011166 0.024080131 -0.02179772 -0.16745092 0.02366146 0.08009193 0.027838342
00000000: a7d6 1ebc 0ee5 c93d 08e5 9dbd c69a 113e
00000010: 5052 debd 157e c2bc 1e78 463d c271 533d
00000020: 5bb2 10bd f3af 1fbd dca1 33bd f11f bcbd
00000030: 32a3 95bc 8d75 46bd 0b44 d73c ca62 793d
00000040: 7a6c 533d eea9 0bbd 1e79 343d ef7b adbd
00000050: 402e 23bd 6ad4 2f3d c9b0 4abd 71c2 1a3e
00000060: 9089 dfbd 229e df3c 1e56 2c3d 743a 07be
00000070: d03b c9bd 3dfc b53d 57fc ca3d 4317 0d3e
00000080: 3522 75bc c191 b8bd 8c0a cdbc 8eee 92bc
00000090: 4f66 acbd adb7 b4bd 67dd 693d bc83 84bc
000000a0: 73b5 beba 709d 94bd b2ca 97bc 3efe debc
000000b0: 8a00 7d3d 27a3 06be d8c6 943d 63fc 91bd
000000c0: 5805 7abb 82de 41bd ae82 a03d 214a 88bd
000000d0: a9b1 b93d 7310 633d c336 1c3d 5799 e33c
000000e0: cd15 a53d d9eb 90bd 362d 9cbd 713b bcbd
000000f0: 5817 723d 0e29 d4bd ccdf ce3c a78f aebc
00000100: 4282 383c d918 2fbd 3ad2 9dbd cc27 0cbe
00000110: 9b6e f73c bcbf d1bd 4406 c1bd 5324 babd
00000120: fc84 e1bd bddb 1e3d 4df9 8b3d 82af 5ebc
00000130: 806b e7bd da5c ffbd 4f3b 13bd d87a 91bd
00000140: 8102 103d 758d bdbd 56fe e239 608e 84bd
00000150: 1fc4 64bd 3c99 9b3d 9dc1 1cbe ff5b 80bd
00000160: 8359 0cbd 0898 013e 7042 cbbc a05e 303d
00000170: 9758 963b f875 b13c 0e12 cf3c 80c5 dabc
00000180: d81e a63c 1cbe cd3d 93ce bcbd 1843 703c
00000190: 34d3 db3c 5abe 9c3d ff1c 84bd 7302 ce3c
000001a0: 2d91 80bb 629c a3bd 1307 0abd b4ae d6bd
000001b0: 4763 17bd 08b0 4cbd 07cb 19bd 94e4 dfbc
000001c0: 3d74 32bd d79d adbb 50a3 063d 09d4 e53d
000001d0: 9e6c 4f3d f203 8d3c d99f 3b3c 273f 8dbd
000001e0: 01ac 913d 544c 51bc 3905 9a3c 8511 9e3c
000001f0: 134b a9bd 233e 873d 904d 56bc 9c71 ee3c
00000200: c02e 35bd a236 433d 27df d03c 8937 1e3d
00000210: c48b 03be 9977 6d3d fb18 303d f6b9 c9bc
00000220: 2f0c 57bd 2575 f7bc aed7 703d 4223 063c
00000230: f098 b8bd 480c 93bc 2a40 5ebc 16d7 b83d
00000240: e509 d8bc bc83 b93c 670d a2bc c7dd 53bc
00000250: 29eb de3c 58dc ed39 0638 463c 23ef eabc
00000260: 8a22 b6bd 3bea 8dbd 3d47 a13c 9de1 a7bc
00000270: 4ce6 5dbd 9325 393c d8f7 833c 08c3 0bbd
00000280: bf1b 8c3d 4bc0 553d 31fc 83bd 8415 213c
00000290: 897b e8bd b8eb 78bd ba9a 97bd 8cfd 343d
000002a0: 3866 8b3d b1c8 9a3d 1872 07bd 6406 f6bd
000002b0: 44dc 19bd 5eb5 20bd f523 63bc 3f23 b7bb
000002c0: 9f2b b93d 412f 3abd 7a34 79bc 8682 78bd
000002d0: 7b89 ba3c 53d4 b9bb abc4 9ebd b30e 99bd
000002e0: fa83 12bd af2d 97bb d871 d5bc c5f7 29bd
000002f0: 5c82 c7bc 1cfb 7b3d c032 46bd 5d60 abbc
00000300: 071e fcbc 93b9 72bc 36bd 483d f102 0ebd
00000310: d1aa 6fbc e49a 58bd d97a 41bc 139f e23c
00000320: b941 8bbd 284e 4b3d 3bb7 71bd 92fc af3c
00000330: 1d0e 793b 0b02 393c 965e 8bbc 2e1f 673d
00000340: 272b 9c3d 3d73 893b 066a e03d 4717 63bc
00000350: 8b0e 9e3c dfec 1ebd a12a 1ebd 8958 b13d
00000360: 00fd a8bd 9f7a ab39 0f70 19be 6025 d6bc
00000370: 7c97 ec3b f2b1 e2bd 0a2c dcbd 9484 c3bd
00000380: 9e85 433d f256 fdbc 1ebd acbd fa71 003d
00000390: 3871 b7bc f545 5fbb db12 123a b113 083e
000003a0: eba9 a4bd ba6f 8cbd 160e 813d ab07 2f3c
000003b0: a3fe 01bd 24a1 33bd 56d8 34bd 7427 e8bb
000003c0: 01af a1bc 1c20 243c d7ec 4a3c 1487 bbbd
000003d0: f252 e23c 2189 b4bc ca42 323e 3c89 a7bb
000003e0: 79d9 7f3c c92c 55bc b243 c53c 2291 b2bc
000003f0: 4178 2bbe aed5 c13c 3d07 a43d 3c0d e43c

fc2.bias f4 [128]
-0.031487968 -0.030789698 -0.0060473275 -0.0050892136 -0.018008249 0.0013392131 -0.028738743 -0.013048441
-0.009670641 -0.017862262 0.001885877 -0.005050794 0.009475705 0.013955313 -0.022206502 -0.017625812
-0.013111042 -0.02356625 -0.019489009 -0.022375187 -0.00155238 -0.01644838 -0.004371965 -0.02297168
-0.027266005 -0.028714374 -0.0031021687 0.0068448964 -0.01957068 -0.007693027 -0.0123515455 -0.0072708055
0.0009829028 0.009809146 -0.008746347 -0.017999355 -0.016360575 -0.004429941 -0.009525798 -0.036746584
-0.02318382 -0.0143242795 0.0067785443 -0.018748853 -0.025758952 -0.015239402 -0.0154905245 -0.026425572
-0.011632141 -0.021972146 0.00052153517 -0.0029414971 -0.024240006 -0.010175505 0.00303051 -0.01572972
-0.027237017 -0.008338874 -0.013103787 -0.030301409 -0.010234734 -0.002307229 -0.029431367 -0.021895276
-0.013795413 -0.02422845 -0.010520742 -0.0023229744 -0.0126165105 0.005158246 -0.024592552 -0.012303992
-0.023085177 -0.012963616 -0.027360829 -0.010566036 -0.020248385 -0.026550796 -0.004333633 -0.021006763
-0.013863744 -0.011420101 -0.029737284 -0.007962525 -0.026424466 -0.007853669 -0.024236027 0.0022908333
-0.01264425 -0.016608508 -0.019316178 -0.018309223 -0.019040456 -0.0048356825 -0.017647356 -0.010868739
-0.0022761628 -0.02752127 0.011176101 -0.0076710926 -0.011628971 -0.017794881 -0.0112944925 -0.019285103
-0.020408027 -0.026508732 -0.0037563774 -0.007992948 -0.0060063214 -0.0069942344 -0.018824367 0.001425808
-0.0034256105 -0.024331477 -0.012443119 -0.014765342 -0.020813143 -0.0022128227 0.013751351 -0.018178312
-0.013850659 -0.004997702 -0.0061568185 -0.0008733478 -0.020509047 -0.016297655 -0.0065867715 -0.001715213
00000000: 87f9 00bd ad3a fcbc a928 c6bb 6bc3 a6bb
00000010: 0986 93bc 8988 af3a 836d ebbc 21c9 55bc
00000020: 9c71 1ebc e153 92bc 882f f73a 2281 a5bb
00000030: fd3f 1b3c d3a4 643c 69ea b5bc 0264 90bc
00000040: b2cf 56bc 020e c1bc 6aa7 9fbc 2b4c b7bc
00000050: 3b79 cbba c1be 86bc b342 8fbb 1b2f bcbc
00000060: f55c dfbc 683a ebbc c14d 4bbb 274b e03b
00000070: b152 a0bc ca15 fcbb 235e 4abc f03f eebb
00000080: bfd4 803a 8ab6 203c d74c 0fbc 6273 93bc
00000090: 9d06 86bc 0a29 91bb 1812 1cbc 9683 16bd
000000a0: ffeb bdbc 62b0 6abc 8d1e de3b 3297 99bc
000000b0: 7004 d3bc afae 79bc f8cb 7dbc 717a d8bc
000000c0: bc94 3ebc eefe b3bc a2b7 083a 22c6 40bb
000000d0: fa92 c6bc 29b7 26bc 859b 463b 9ddb 80bc
000000e0: 2a20 dfbc c69f 08bc 44b1 56bc a93a f8bc
000000f0: 96af 27bc e134 17bb 0d1a f1bc b95d b3bc
00000100: 2806 62bc be7a c6bc 315f 2cbc 0b3d 18bb
00000110: 7bb5 4ebc 8106 a93b 5276 c9bc af96 49bc
00000120: 201d bdbc 5965 54bc d123 e0bc 2b1d 2dbc
00000130: f1df a5bc 0e81 d9bc 2601 8ebb 6016 acbc
00000140: c224 63bc 601b 3bbc 9b9b f3bc 4075 02bc
00000150: 1f78 d8bc adac 00bc a28a c6bc ce21 163b
00000160: d429 4fbc 910e 88bc f63c 9ebc 39fd 95bc
00000170: bbfa 9bbc a574 9ebb 3091 90bc cc12 32bc
00000180: ad2b 15bb 4974 e1bc f71b 373c ca5d fbbb
00000190: 7187 3ebc 92c6 91bc 890c 39bc cbfb 9dbc
000001a0: bc2e a7bc d728 d9bc 8e2d 76bb dbf4 02bc
000001b0: add0 c4bb e42f e5bb 8f35 9abc 2de2 ba3a
000001c0: 3580 60bb ce52 c7bc 39de 4bbc 55ea 71bc
000001d0: 5380 aabc 0105 11bb 594d 613c afea 94bc
000001e0: e0ed 62bc c3c3 a3bb 23bf c9bb 61f1 64ba
000001f0: 9702 a8bc a982 85bc d8d5 d7bb ffd0 e0ba

fc_action.weight f4 [3, 128]
-0.021468207 0.0298484 0.14298543 0.036797278 0.003013976 0.027277373 0.0010012285 -0.012036796
0.008534475 0.11198276 0.16088451 0.021551074 0.0381676 0.023807706 0.03562876 -0.08229938
-0.07309657 0.050276592 0.032384045 0.021767609 0.09149813 0.22799955 0.05231298 -0.09036922
0.0039578443 0.04875195 -0.006078322 0.044882637 0.0054780687 0.05545257 -0.06922381 -0.091607444
0.09999817 0.08354365 0.17319946 0.027265798 -0.16380498 -0.083139576 -0.04730485 -0.02745095
-0.103451476 0.0030623437 0.009231517 0.029112816 -0.08488102 -0.061354954 0.041880578 0.24251921
-0.061401606 -0.022488998 0.11135014 -0.09749317 0.046700623 -0.084849104 -0.03267152 -0.10952654
0.06661029 0.12387418 0.03193254 0.04449798 0.077795014 0.030239612 0.10052052 -0.01110186
-0.09867524 -0.018893527 -0.013897908 0.17431723 0.11638655 0.036328755 0.09798688 0.037520118
-0.13149218 0.075206056 0.16929485 0.005092971 -0.06252712 -0.011416643 0.016236665 0.0078286715
-0.050816588 -0.037100498 0.023257913 -0.12179578 -0.09657494 -0.0054377406 -0.024778668 -0.05533598
0.08854063 0.019408714 0.035860572 0.14355376 -0.040582925 0.033650715 0.111985676 0.15035693
-0.04091526 0.008953354 0.11747642 -0.038284663 -0.023175782 0.008468316 -0.015071151 -0.03491995
0.10671834 0.12889756 0.093567856 0.058300737 0.11699429 0.053059034 0.038049847 0.08192646
-0.02632195 -0.06661837 0.14539297 -0.047779515 -0.050778806 -0.022071252 0.08401532 0.025663845
0.009741554 -0.09686214 -0.03889743 -0.014247117 -0.010618794 -0.05700398 -0.088850364 -0.041365907
0.08621849 -0.077686355 -0.019472495 0.05102148 -0.10705836 0.03565967 -0.1103309 -0.048137702
0.10540622 -0.007295752 0.015923126 0.054034874 0.10383884 0.045713097 -0.21630192 0.041782215
0.072796725 -0.013865833 0.082279906 0.23096499 0.105739765 -0.16615361 0.06569268 0.04362227
0.004870668 0.0713686 -0.01628931 -0.043833673 -0.08243539 0.03161409 0.008803961 0.037473977
0.010933144 -0.060015306 0.13965839 0.03902414 -0.041550346 0.005578717 0.11855689 -0.07612537
0.06496564 -0.0019787585 0.052595224 -0.051879015 -0.008089271 0.02293465 0.14436555 -0.00013004558
-0.1648644 -0.08713922 -0.019655265 -0.08706332 -0.04154341 -0.029649965 -0.010357833 -0.05160399
-0.009103907 0.11682489 0.13746706 -0.035685 0.025403729 0.01882983 0.11564345 0.07822076
-0.048898995 0.082849704 -0.13893612 0.043198712 -0.118487984 -0.08715577 0.06331989 -0.040620934
0.03869625 -0.12156413 0.06221762 0.039587095 -0.111997426 0.052105587 0.064444214 0.012896287
-0.06605892 0.020817611 0.02397901 -0.076640315 0.060493708 0.006764095 -0.02682041 0.04860105
0.08029589 -0.098066606 0.041995518 -0.10032046 -0.013235944 0.046191823 0.101876065 0.008742835
-0.09593566 -0.055581603 0.05354722 -0.00013996252 -0.043937393 0.019053683 -0.11508807 -0.05059291
0.048812922 -0.004977568 -0.11283168 0.09272461 0.03889016 0.052890167 0.023247246 0.05768451
0.065368906 -0.07674254 0.1384165 -0.0041662976 0.08863415 -0.10577745 0.017338345 -0.038069934
-0.012396959 -0.013607129 -0.05364895 -0.047594264 0.13761218 -0.098072745 -0.03893025 0.052300468
00000000: 18de afbc a284 f43c c66a 123e beb8 163d
00000010: 2086 453b cc74 df3c a73b 833a fb35 45bc
00000020: 2fd4 0b3c 3857 e53d e9be 243e e18b b03c
00000030: a155 1c3d 6108 c33c 76ef 113d 948c a8bd
00000040: a8b3 95bd d4ee 4d3d 22a5 043d fc51 b23c
00000050: 5f63 bb3d b778 693e 2346 563d 7f13 b9bd
00000060: ceb0 813b 20b0 473d a92c c7bb dbd6 373d
00000070: 5f81 b33b 3c22 633d 37c5 8dbd af9c bbbd
00000080: d7cb cc3d ef18 ab3d 335b 313e 865c df3c
00000090: 7ebc 27be 1545 aabd bbc2 41bd d1e0 e0bc
000000a0: 5ede d3bd 9ab1 483b ca3f 173c 007e ee3c
000000b0: 1ad6 adbd 554f 7bbd f88a 2b3d f556 783e
000000c0: 4080 7bbd d93a b8bc 8b0b e43d 80aa c7bd
000000d0: 2749 3f3d 5ec5 adbd 92d2 05bd 734f e0bd
000000e0: fa6a 883d bfb1 fd3d b2cb 023d 8443 363d
000000f0: fe52 9f3d 10b9 f73c b4dd cd3d 93e4 35bc
00000100: 3f16 cabd 99c6 9abc 0db4 63bc 3780 323e
00000110: 125c ee3d 76cd 143d 58ad c83d b2ae 193d
00000120: e3a5 06be a205 9a3d a15b 2d3e f0e2 a63b
00000130: 380e 80bd df0c 3bbc c102 853c d443 003c
00000140: 0e25 50bd b1f6 17bd 6187 be3c 1170 f9bd
00000150: 15c9 c5bd 132f b2bb a2fc cabc fba7 62bd
00000160: ca54 b53d 06ff 9e3c 89e2 123d c2ff 123e
00000170: 483a 26bd 55d5 093d bf58 e53d 2bf7 193e
00000180: c296 27bd 17b1 123c 7a97 f03d 61d0 1cbd
00000190: 23db bdbc b1be 0a3c fdec 76bc 3908 0fbd
000001a0: 258f da3d b9fd 033e 81a0 bf3d c1cc 6e3d
000001b0: b49a ef3d 6e54 593d 28da 1b3d 0fc9 a73d
000001c0: 21a1 d7bc 366f 88bd e5e1 143e 74b4 43bd
000001d0: 70fd 4fbd c5ce b4bc 3910 ac3d fc3c d23c
000001e0: 0a9b 1f3c a85f c6bd e952 1fbd bd6c 69bc
000001f0: 73fa 2dbc 017d 69bd 2ef7 b5bd 4c6f 29bd
00000200: 5293 b03d 061a 9fbd c884 9fbc e6fb 503d
00000210: 6a41 dbbd e00f 123d 2bf5 e1bd 0a2c 45bd
00000220: 37df d73d 3411 efbb 3771 823c ac53 5d3d
00000230: 75a9 d43d a83d 3b3d 407e 5dbe d423 2b3d
00000240: 7316 953d 852d 63bc 5e82 a83d 1682 6c3e
00000250: 178e d83d 2c24 2abe e289 863d 44ad 323d
00000260: 209a 9f3b b329 923d 2971 85bc f08a 33bd
00000270: e3d3 a8bd c77d 013d 7d3e 103c 507e 193d
00000280: ee20 333c 9cd2 75bd 9c02 0f3e c7d7 1f3d
00000290: b230 2abd accd b63b f4cd f23d 9ee7 9bbd
000002a0: b50c 853d 0fae 01bb 176e 573d 177f 54bd
000002b0: dd88 04bc 72e1 bb3c 90d4 133e d85c 08b9
000002c0: 37d2 28be 0c76 b2bd 1404 a1bc 414e b2bd
000002d0: 6c29 2abd 7ce4 f2bc e6b3 29bc b55e 53bd
000002e0: 8e28 15bc e341 ef3d 2ac4 0c3e 6f2a 12bd
000002f0: 7b1b d03c 0441 9a3c 79d6 ec3d 3532 a03d
00000300: 504a 48bd 1bad a93d 4545 0ebe 22f1 303d
00000310: d4a9 f2bd b97e b2bd dcad 813d 2362 26bd
00000320: f67f 1e3d 9df6 f8bd e7d7 7e3d 1426 223d
00000330: e85e e5bd ab6c 553d 54fb 833d f34a 533c
00000340: e649 87bd b289 aa3c a16f c43c 99f5 9cbd
00000350: 40c8 773d 57a5 dd3b 7ab6 dbbc e511 473d
00000360: 2c72 a43d 25d7 c8bd 7e03 2c3d d074 cdbd
00000370: 93db 58bc a333 3d3d 66a4 d03d 1c3e 0f3c
00000380: ea79 c4bd 89a9 63bd 5454 5b3d e7c2 12b9
00000390: b2f7 33bd 7816 9c3c 4bb3 ebbd 833a 4fbd
000003a0: 0ff0 473d de1a a3bb 4c14 e7bd 66e6 bd3d
000003b0: 4a4b 1f3d 5ca3 583d 0271 be3c 9846 6c3d
000003c0: 22e0 853d 312b 9dbd 0ebd 0d3e 7085 88bb
000003d0: d285 b53d d9a1 d8bd 2509 8e3c 38ef 1bbd
000003e0: 9d1c 4bbc 70f0 5ebc 00bf 5bbd 34f2 42bd
000003f0: 35ea 0c3e 5dda c8bd 5375 1fbd 0439 563d

fc_action.bias f4 [3]
-0.0056283395 0.0074156476 0.0008457972
00000000: ef6d b8bb f6fe f23b 7db8 5d3a
